…
2023-10-20 09:24:16,431   INFO  ==> Loading parameters from checkpoint /home/kemove/tem/OpenPCDet-master/output/kitti_models/pointpillar_mobilenetv3_onecat_label_3swin_rdiou_3cat/default/ckpt/checkpoint_epoch_100.pth to CPU
2023-10-20 09:24:16,483   INFO  ==> Loading optimizer parameters from checkpoint /home/kemove/tem/OpenPCDet-master/output/kitti_models/pointpillar_mobilenetv3_onecat_label_3swin_rdiou_3cat/default/ckpt/checkpoint_epoch_100.pth to CPU
2023-10-20 09:24:16,518   INFO  ==> Done
2023-10-20 09:24:17,708   INFO  ----------- Model PointPillar created, param count: 7767300 -----------
2023-10-20 09:24:17,708   INFO  DistributedDataParallel(
  (module): PointPillar(
    (vfe): PillarVFE(
      (pfn_layers): ModuleList(
        (0): PFNLayer(
          (linear): Linear(in_features=10, out_features=64, bias=False)
          (norm): BatchNorm1d(64, eps=0.001, momentum=0.01, affine=True, track_running_stats=True)
        )
      )
    )
    (backbone_3d): None
    (map_to_bev_module): PointPillarScatter()
    (pfe): None
    (backbone_2d): MobileNetV3_Backbone_onecat_3swin_3cat(
      (blocks): ModuleList(
        (0): Sequential(
          (0): ZeroPad2d(padding=(1, 1, 1, 1), value=0.0)
          (1): Conv2d(64, 64, kernel_size=(3, 3), stride=(2, 2), bias=False)
          (2): BatchNorm2d(64, eps=0.001, momentum=0.01, affine=True, track_running_stats=True)
          (3): ReLU()
          (4): Block(
            (conv1): Conv2d(64, 128, kernel_size=(1, 1), stride=(1, 1), bias=False)
            (bn1): BatchNorm2d(128, eps=1e-05, momentum=0.1, affine=True, track_running_stats=True)
            (act1): ReLU(inplace=True)
            (conv2): Conv2d(128, 128, kernel_size=(3, 3), stride=(1, 1), padding=(1, 1), groups=128, bias=False)
            (bn2): BatchNorm2d(128, eps=1e-05, momentum=0.1, affine=True, track_running_stats=True)
            (act2): ReLU(inplace=True)
            (se): SeModule(
              (se): Sequential(
                (0): AdaptiveAvgPool2d(output_size=1)
                (1): Conv2d(128, 32, kernel_size=(1, 1), stride=(1, 1), bias=False)
                (2): BatchNorm2d(32, eps=1e-05, momentum=0.1, affine=True, track_running_stats=True)
                (3): ReLU(inplace=True)
                (4): Conv2d(32, 128, kernel_size=(1, 1), stride=(1, 1), bias=False)
                (5): Hardsigmoid()
              )
            )
            (conv3): Conv2d(128, 64, kernel_size=(1, 1), stride=(1, 1), bias=False)
            (bn3): BatchNorm2d(64, eps=1e-05, momentum=0.1, affine=True, track_running_stats=True)
            (act3): ReLU(inplace=True)
          )
          (5): Block(
            (conv1): Conv2d(64, 128, kernel_size=(1, 1), stride=(1, 1), bias=False)
            (bn1): BatchNorm2d(128, eps=1e-05, momentum=0.1, affine=True, track_running_stats=True)
            (act1): ReLU(inplace=True)
            (conv2): Conv2d(128, 128, kernel_size=(3, 3), stride=(1, 1), padding=(1, 1), groups=128, bias=False)
            (bn2): BatchNorm2d(128, eps=1e-05, momentum=0.1, affine=True, track_running_stats=True)
            (act2): ReLU(inplace=True)
            (se): SeModule(
              (se): Sequential(
                (0): AdaptiveAvgPool2d(output_size=1)
                (1): Conv2d(128, 32, kernel_size=(1, 1), stride=(1, 1), bias=False)
                (2): BatchNorm2d(32, eps=1e-05, momentum=0.1, affine=True, track_running_stats=True)
                (3): ReLU(inplace=True)
                (4): Conv2d(32, 128, kernel_size=(1, 1), stride=(1, 1), bias=False)
                (5): Hardsigmoid()
              )
            )
            (conv3): Conv2d(128, 64, kernel_size=(1, 1), stride=(1, 1), bias=False)
            (bn3): BatchNorm2d(64, eps=1e-05, momentum=0.1, affine=True, track_running_stats=True)
            (act3): ReLU(inplace=True)
          )
          (6): Block(
            (conv1): Conv2d(64, 128, kernel_size=(1, 1), stride=(1, 1), bias=False)
            (bn1): BatchNorm2d(128, eps=1e-05, momentum=0.1, affine=True, track_running_stats=True)
            (act1): ReLU(inplace=True)
            (conv2): Conv2d(128, 128, kernel_size=(3, 3), stride=(1, 1), padding=(1, 1), groups=128, bias=False)
            (bn2): BatchNorm2d(128, eps=1e-05, momentum=0.1, affine=True, track_running_stats=True)
            (act2): ReLU(inplace=True)
            (se): SeModule(
              (se): Sequential(
                (0): AdaptiveAvgPool2d(output_size=1)
                (1): Conv2d(128, 32, kernel_size=(1, 1), stride=(1, 1), bias=False)
                (2): BatchNorm2d(32, eps=1e-05, momentum=0.1, affine=True, track_running_stats=True)
                (3): ReLU(inplace=True)
                (4): Conv2d(32, 128, kernel_size=(1, 1), stride=(1, 1), bias=False)
                (5): Hardsigmoid()
              )
            )
            (conv3): Conv2d(128, 64, kernel_size=(1, 1), stride=(1, 1), bias=False)
            (bn3): BatchNorm2d(64, eps=1e-05, momentum=0.1, affine=True, track_running_stats=True)
            (act3): ReLU(inplace=True)
          )
        )
        (1): Sequential(
          (0): ZeroPad2d(padding=(1, 1, 1, 1), value=0.0)
          (1): Conv2d(64, 128, kernel_size=(3, 3), stride=(2, 2), bias=False)
          (2): BatchNorm2d(128, eps=0.001, momentum=0.01, affine=True, track_running_stats=True)
          (3): ReLU()
          (4): Block(
            (conv1): Conv2d(128, 256, kernel_size=(1, 1), stride=(1, 1), bias=False)
            (bn1): BatchNorm2d(256, eps=1e-05, momentum=0.1, affine=True, track_running_stats=True)
            (act1): ReLU(inplace=True)
            (conv2): Conv2d(256, 256, kernel_size=(3, 3), stride=(1, 1), padding=(1, 1), groups=256, bias=False)
            (bn2): BatchNorm2d(256, eps=1e-05, momentum=0.1, affine=True, track_running_stats=True)
            (act2): ReLU(inplace=True)
            (se): SeModule(
              (se): Sequential(
                (0): AdaptiveAvgPool2d(output_size=1)
                (1): Conv2d(256, 64, kernel_size=(1, 1), stride=(1, 1), bias=False)
                (2): BatchNorm2d(64, eps=1e-05, momentum=0.1, affine=True, track_running_stats=True)
                (3): ReLU(inplace=True)
                (4): Conv2d(64, 256, kernel_size=(1, 1), stride=(1, 1), bias=False)
                (5): Hardsigmoid()
              )
            )
            (conv3): Conv2d(256, 128, kernel_size=(1, 1), stride=(1, 1), bias=False)
            (bn3): BatchNorm2d(128, eps=1e-05, momentum=0.1, affine=True, track_running_stats=True)
            (act3): ReLU(inplace=True)
          )
          (5): Block(
            (conv1): Conv2d(128, 256, kernel_size=(1, 1), stride=(1, 1), bias=False)
            (bn1): BatchNorm2d(256, eps=1e-05, momentum=0.1, affine=True, track_running_stats=True)
            (act1): ReLU(inplace=True)
            (conv2): Conv2d(256, 256, kernel_size=(3, 3), stride=(1, 1), padding=(1, 1), groups=256, bias=False)
            (bn2): BatchNorm2d(256, eps=1e-05, momentum=0.1, affine=True, track_running_stats=True)
            (act2): ReLU(inplace=True)
            (se): SeModule(
              (se): Sequential(
                (0): AdaptiveAvgPool2d(output_size=1)
                (1): Conv2d(256, 64, kernel_size=(1, 1), stride=(1, 1), bias=False)
                (2): BatchNorm2d(64, eps=1e-05, momentum=0.1, affine=True, track_running_stats=True)
                (3): ReLU(inplace=True)
                (4): Conv2d(64, 256, kernel_size=(1, 1), stride=(1, 1), bias=False)
                (5): Hardsigmoid()
              )
            )
            (conv3): Conv2d(256, 128, kernel_size=(1, 1), stride=(1, 1), bias=False)
            (bn3): BatchNorm2d(128, eps=1e-05, momentum=0.1, affine=True, track_running_stats=True)
            (act3): ReLU(inplace=True)
          )
          (6): Block(
            (conv1): Conv2d(128, 256, kernel_size=(1, 1), stride=(1, 1), bias=False)
            (bn1): BatchNorm2d(256, eps=1e-05, momentum=0.1, affine=True, track_running_stats=True)
            (act1): ReLU(inplace=True)
            (conv2): Conv2d(256, 256, kernel_size=(3, 3), stride=(1, 1), padding=(1, 1), groups=256, bias=False)
            (bn2): BatchNorm2d(256, eps=1e-05, momentum=0.1, affine=True, track_running_stats=True)
            (act2): ReLU(inplace=True)
            (se): SeModule(
              (se): Sequential(
                (0): AdaptiveAvgPool2d(output_size=1)
                (1): Conv2d(256, 64, kernel_size=(1, 1), stride=(1, 1), bias=False)
                (2): BatchNorm2d(64, eps=1e-05, momentum=0.1, affine=True, track_running_stats=True)
                (3): ReLU(inplace=True)
                (4): Conv2d(64, 256, kernel_size=(1, 1), stride=(1, 1), bias=False)
                (5): Hardsigmoid()
              )
            )
            (conv3): Conv2d(256, 128, kernel_size=(1, 1), stride=(1, 1), bias=False)
            (bn3): BatchNorm2d(128, eps=1e-05, momentum=0.1, affine=True, track_running_stats=True)
            (act3): ReLU(inplace=True)
          )
          (7): Block(
            (conv1): Conv2d(128, 256, kernel_size=(1, 1), stride=(1, 1), bias=False)
            (bn1): BatchNorm2d(256, eps=1e-05, momentum=0.1, affine=True, track_running_stats=True)
            (act1): ReLU(inplace=True)
            (conv2): Conv2d(256, 256, kernel_size=(3, 3), stride=(1, 1), padding=(1, 1), groups=256, bias=False)
            (bn2): BatchNorm2d(256, eps=1e-05, momentum=0.1, affine=True, track_running_stats=True)
            (act2): ReLU(inplace=True)
            (se): SeModule(
              (se): Sequential(
                (0): AdaptiveAvgPool2d(output_size=1)
                (1): Conv2d(256, 64, kernel_size=(1, 1), stride=(1, 1), bias=False)
                (2): BatchNorm2d(64, eps=1e-05, momentum=0.1, affine=True, track_running_stats=True)
                (3): ReLU(inplace=True)
                (4): Conv2d(64, 256, kernel_size=(1, 1), stride=(1, 1), bias=False)
                (5): Hardsigmoid()
              )
            )
            (conv3): Conv2d(256, 128, kernel_size=(1, 1), stride=(1, 1), bias=False)
            (bn3): BatchNorm2d(128, eps=1e-05, momentum=0.1, affine=True, track_running_stats=True)
            (act3): ReLU(inplace=True)
          )
          (8): Block(
            (conv1): Conv2d(128, 256, kernel_size=(1, 1), stride=(1, 1), bias=False)
            (bn1): BatchNorm2d(256, eps=1e-05, momentum=0.1, affine=True, track_running_stats=True)
            (act1): ReLU(inplace=True)
            (conv2): Conv2d(256, 256, kernel_size=(3, 3), stride=(1, 1), padding=(1, 1), groups=256, bias=False)
            (bn2): BatchNorm2d(256, eps=1e-05, momentum=0.1, affine=True, track_running_stats=True)
            (act2): ReLU(inplace=True)
            (se): SeModule(
              (se): Sequential(
                (0): AdaptiveAvgPool2d(output_size=1)
                (1): Conv2d(256, 64, kernel_size=(1, 1), stride=(1, 1), bias=False)
                (2): BatchNorm2d(64, eps=1e-05, momentum=0.1, affine=True, track_running_stats=True)
                (3): ReLU(inplace=True)
                (4): Conv2d(64, 256, kernel_size=(1, 1), stride=(1, 1), bias=False)
                (5): Hardsigmoid()
              )
            )
            (conv3): Conv2d(256, 128, kernel_size=(1, 1), stride=(1, 1), bias=False)
            (bn3): BatchNorm2d(128, eps=1e-05, momentum=0.1, affine=True, track_running_stats=True)
            (act3): ReLU(inplace=True)
          )
        )
        (2): Sequential(
          (0): ZeroPad2d(padding=(1, 1, 1, 1), value=0.0)
          (1): Conv2d(128, 256, kernel_size=(3, 3), stride=(2, 2), bias=False)
          (2): BatchNorm2d(256, eps=0.001, momentum=0.01, affine=True, track_running_stats=True)
          (3): ReLU()
          (4): Block(
            (conv1): Conv2d(256, 512, kernel_size=(1, 1), stride=(1, 1), bias=False)
            (bn1): BatchNorm2d(512, eps=1e-05, momentum=0.1, affine=True, track_running_stats=True)
            (act1): ReLU(inplace=True)
            (conv2): Conv2d(512, 512, kernel_size=(3, 3), stride=(1, 1), padding=(1, 1), groups=512, bias=False)
            (bn2): BatchNorm2d(512, eps=1e-05, momentum=0.1, affine=True, track_running_stats=True)
            (act2): ReLU(inplace=True)
            (se): SeModule(
              (se): Sequential(
                (0): AdaptiveAvgPool2d(output_size=1)
                (1): Conv2d(512, 128, kernel_size=(1, 1), stride=(1, 1), bias=False)
                (2): BatchNorm2d(128, eps=1e-05, momentum=0.1, affine=True, track_running_stats=True)
                (3): ReLU(inplace=True)
                (4): Conv2d(128, 512, kernel_size=(1, 1), stride=(1, 1), bias=False)
                (5): Hardsigmoid()
              )
            )
            (conv3): Conv2d(512, 256, kernel_size=(1, 1), stride=(1, 1), bias=False)
            (bn3): BatchNorm2d(256, eps=1e-05, momentum=0.1, affine=True, track_running_stats=True)
            (act3): ReLU(inplace=True)
          )
          (5): Block(
            (conv1): Conv2d(256, 512, kernel_size=(1, 1), stride=(1, 1), bias=False)
            (bn1): BatchNorm2d(512, eps=1e-05, momentum=0.1, affine=True, track_running_stats=True)
            (act1): ReLU(inplace=True)
            (conv2): Conv2d(512, 512, kernel_size=(3, 3), stride=(1, 1), padding=(1, 1), groups=512, bias=False)
            (bn2): BatchNorm2d(512, eps=1e-05, momentum=0.1, affine=True, track_running_stats=True)
            (act2): ReLU(inplace=True)
            (se): SeModule(
              (se): Sequential(
                (0): AdaptiveAvgPool2d(output_size=1)
                (1): Conv2d(512, 128, kernel_size=(1, 1), stride=(1, 1), bias=False)
                (2): BatchNorm2d(128, eps=1e-05, momentum=0.1, affine=True, track_running_stats=True)
                (3): ReLU(inplace=True)
                (4): Conv2d(128, 512, kernel_size=(1, 1), stride=(1, 1), bias=False)
                (5): Hardsigmoid()
              )
            )
            (conv3): Conv2d(512, 256, kernel_size=(1, 1), stride=(1, 1), bias=False)
            (bn3): BatchNorm2d(256, eps=1e-05, momentum=0.1, affine=True, track_running_stats=True)
            (act3): ReLU(inplace=True)
          )
          (6): Block(
            (conv1): Conv2d(256, 512, kernel_size=(1, 1), stride=(1, 1), bias=False)
            (bn1): BatchNorm2d(512, eps=1e-05, momentum=0.1, affine=True, track_running_stats=True)
            (act1): ReLU(inplace=True)
            (conv2): Conv2d(512, 512, kernel_size=(3, 3), stride=(1, 1), padding=(1, 1), groups=512, bias=False)
            (bn2): BatchNorm2d(512, eps=1e-05, momentum=0.1, affine=True, track_running_stats=True)
            (act2): ReLU(inplace=True)
            (se): SeModule(
              (se): Sequential(
                (0): AdaptiveAvgPool2d(output_size=1)
                (1): Conv2d(512, 128, kernel_size=(1, 1), stride=(1, 1), bias=False)
                (2): BatchNorm2d(128, eps=1e-05, momentum=0.1, affine=True, track_running_stats=True)
                (3): ReLU(inplace=True)
                (4): Conv2d(128, 512, kernel_size=(1, 1), stride=(1, 1), bias=False)
                (5): Hardsigmoid()
              )
            )
            (conv3): Conv2d(512, 256, kernel_size=(1, 1), stride=(1, 1), bias=False)
            (bn3): BatchNorm2d(256, eps=1e-05, momentum=0.1, affine=True, track_running_stats=True)
            (act3): ReLU(inplace=True)
          )
          (7): Block(
            (conv1): Conv2d(256, 512, kernel_size=(1, 1), stride=(1, 1), bias=False)
            (bn1): BatchNorm2d(512, eps=1e-05, momentum=0.1, affine=True, track_running_stats=True)
            (act1): ReLU(inplace=True)
            (conv2): Conv2d(512, 512, kernel_size=(3, 3), stride=(1, 1), padding=(1, 1), groups=512, bias=False)
            (bn2): BatchNorm2d(512, eps=1e-05, momentum=0.1, affine=True, track_running_stats=True)
            (act2): ReLU(inplace=True)
            (se): SeModule(
              (se): Sequential(
                (0): AdaptiveAvgPool2d(output_size=1)
                (1): Conv2d(512, 128, kernel_size=(1, 1), stride=(1, 1), bias=False)
                (2): BatchNorm2d(128, eps=1e-05, momentum=0.1, affine=True, track_running_stats=True)
                (3): ReLU(inplace=True)
                (4): Conv2d(128, 512, kernel_size=(1, 1), stride=(1, 1), bias=False)
                (5): Hardsigmoid()
              )
            )
            (conv3): Conv2d(512, 256, kernel_size=(1, 1), stride=(1, 1), bias=False)
            (bn3): BatchNorm2d(256, eps=1e-05, momentum=0.1, affine=True, track_running_stats=True)
            (act3): ReLU(inplace=True)
          )
          (8): Block(
            (conv1): Conv2d(256, 512, kernel_size=(1, 1), stride=(1, 1), bias=False)
            (bn1): BatchNorm2d(512, eps=1e-05, momentum=0.1, affine=True, track_running_stats=True)
            (act1): ReLU(inplace=True)
            (conv2): Conv2d(512, 512, kernel_size=(3, 3), stride=(1, 1), padding=(1, 1), groups=512, bias=False)
            (bn2): BatchNorm2d(512, eps=1e-05, momentum=0.1, affine=True, track_running_stats=True)
            (act2): ReLU(inplace=True)
            (se): SeModule(
              (se): Sequential(
                (0): AdaptiveAvgPool2d(output_size=1)
                (1): Conv2d(512, 128, kernel_size=(1, 1), stride=(1, 1), bias=False)
                (2): BatchNorm2d(128, eps=1e-05, momentum=0.1, affine=True, track_running_stats=True)
                (3): ReLU(inplace=True)
                (4): Conv2d(128, 512, kernel_size=(1, 1), stride=(1, 1), bias=False)
                (5): Hardsigmoid()
              )
            )
            (conv3): Conv2d(512, 256, kernel_size=(1, 1), stride=(1, 1), bias=False)
            (bn3): BatchNorm2d(256, eps=1e-05, momentum=0.1, affine=True, track_running_stats=True)
            (act3): ReLU(inplace=True)
          )
        )
      )
      (deblocks): ModuleList(
        (0): Sequential(
          (0): ConvTranspose2d(64, 128, kernel_size=(1, 1), stride=(1, 1), bias=False)
          (1): BatchNorm2d(128, eps=0.001, momentum=0.01, affine=True, track_running_stats=True)
          (2): ReLU()
        )
        (1): Sequential(
          (0): ConvTranspose2d(128, 128, kernel_size=(2, 2), stride=(2, 2), bias=False)
          (1): BatchNorm2d(128, eps=0.001, momentum=0.01, affine=True, track_running_stats=True)
          (2): ReLU()
        )
        (2): Sequential(
          (0): ConvTranspose2d(256, 128, kernel_size=(4, 4), stride=(4, 4), bias=False)
          (1): BatchNorm2d(128, eps=0.001, momentum=0.01, affine=True, track_running_stats=True)
          (2): ReLU()
        )
      )
      (transformer): ModuleList(
        (0): SwinTransformer(
          (layers): ModuleList(
            (0): BasicLayer(
              (blocks): ModuleList(
                (0): SwinTransformerBlock(
                  (norm1): LayerNorm((64,), eps=1e-05, elementwise_affine=True)
                  (attn): WindowAttention(
                    (qkv): Linear(in_features=64, out_features=192, bias=True)
                    (attn_drop): Dropout(p=0.0, inplace=False)
                    (proj): Linear(in_features=64, out_features=64, bias=True)
                    (proj_drop): Dropout(p=0.0, inplace=False)
                    (softmax): Softmax(dim=-1)
                  )
                  (drop_path): Identity()
                  (norm2): LayerNorm((64,), eps=1e-05, elementwise_affine=True)
                  (mlp): Mlp(
                    (fc1): Linear(in_features=64, out_features=256, bias=True)
                    (act): GELU()
                    (fc2): Linear(in_features=256, out_features=64, bias=True)
                    (drop): Dropout(p=0.0, inplace=False)
                  )
                )
                (1): SwinTransformerBlock(
                  (norm1): LayerNorm((64,), eps=1e-05, elementwise_affine=True)
                  (attn): WindowAttention(
                    (qkv): Linear(in_features=64, out_features=192, bias=True)
                    (attn_drop): Dropout(p=0.0, inplace=False)
                    (proj): Linear(in_features=64, out_features=64, bias=True)
                    (proj_drop): Dropout(p=0.0, inplace=False)
                    (softmax): Softmax(dim=-1)
                  )
                  (drop_path): DropPath(drop_prob=0.067)
                  (norm2): LayerNorm((64,), eps=1e-05, elementwise_affine=True)
                  (mlp): Mlp(
                    (fc1): Linear(in_features=64, out_features=256, bias=True)
                    (act): GELU()
                    (fc2): Linear(in_features=256, out_features=64, bias=True)
                    (drop): Dropout(p=0.0, inplace=False)
                  )
                )
                (2): SwinTransformerBlock(
                  (norm1): LayerNorm((64,), eps=1e-05, elementwise_affine=True)
                  (attn): WindowAttention(
                    (qkv): Linear(in_features=64, out_features=192, bias=True)
                    (attn_drop): Dropout(p=0.0, inplace=False)
                    (proj): Linear(in_features=64, out_features=64, bias=True)
                    (proj_drop): Dropout(p=0.0, inplace=False)
                    (softmax): Softmax(dim=-1)
                  )
                  (drop_path): DropPath(drop_prob=0.133)
                  (norm2): LayerNorm((64,), eps=1e-05, elementwise_affine=True)
                  (mlp): Mlp(
                    (fc1): Linear(in_features=64, out_features=256, bias=True)
                    (act): GELU()
                    (fc2): Linear(in_features=256, out_features=64, bias=True)
                    (drop): Dropout(p=0.0, inplace=False)
                  )
                )
                (3): SwinTransformerBlock(
                  (norm1): LayerNorm((64,), eps=1e-05, elementwise_affine=True)
                  (attn): WindowAttention(
                    (qkv): Linear(in_features=64, out_features=192, bias=True)
                    (attn_drop): Dropout(p=0.0, inplace=False)
                    (proj): Linear(in_features=64, out_features=64, bias=True)
                    (proj_drop): Dropout(p=0.0, inplace=False)
                    (softmax): Softmax(dim=-1)
                  )
                  (drop_path): DropPath(drop_prob=0.200)
                  (norm2): LayerNorm((64,), eps=1e-05, elementwise_affine=True)
                  (mlp): Mlp(
                    (fc1): Linear(in_features=64, out_features=256, bias=True)
                    (act): GELU()
                    (fc2): Linear(in_features=256, out_features=64, bias=True)
                    (drop): Dropout(p=0.0, inplace=False)
                  )
                )
              )
            )
          )
          (norm0): LayerNorm((64,), eps=1e-05, elementwise_affine=True)
        )
        (1): SwinTransformer(
          (layers): ModuleList(
            (0): BasicLayer(
              (blocks): ModuleList(
                (0): SwinTransformerBlock(
                  (norm1): LayerNorm((128,), eps=1e-05, elementwise_affine=True)
                  (attn): WindowAttention(
                    (qkv): Linear(in_features=128, out_features=384, bias=True)
                    (attn_drop): Dropout(p=0.0, inplace=False)
                    (proj): Linear(in_features=128, out_features=128, bias=True)
                    (proj_drop): Dropout(p=0.0, inplace=False)
                    (softmax): Softmax(dim=-1)
                  )
                  (drop_path): Identity()
                  (norm2): LayerNorm((128,), eps=1e-05, elementwise_affine=True)
                  (mlp): Mlp(
                    (fc1): Linear(in_features=128, out_features=512, bias=True)
                    (act): GELU()
                    (fc2): Linear(in_features=512, out_features=128, bias=True)
                    (drop): Dropout(p=0.0, inplace=False)
                  )
                )
                (1): SwinTransformerBlock(
                  (norm1): LayerNorm((128,), eps=1e-05, elementwise_affine=True)
                  (attn): WindowAttention(
                    (qkv): Linear(in_features=128, out_features=384, bias=True)
                    (attn_drop): Dropout(p=0.0, inplace=False)
                    (proj): Linear(in_features=128, out_features=128, bias=True)
                    (proj_drop): Dropout(p=0.0, inplace=False)
                    (softmax): Softmax(dim=-1)
                  )
                  (drop_path): DropPath(drop_prob=0.067)
                  (norm2): LayerNorm((128,), eps=1e-05, elementwise_affine=True)
                  (mlp): Mlp(
                    (fc1): Linear(in_features=128, out_features=512, bias=True)
                    (act): GELU()
                    (fc2): Linear(in_features=512, out_features=128, bias=True)
                    (drop): Dropout(p=0.0, inplace=False)
                  )
                )
                (2): SwinTransformerBlock(
                  (norm1): LayerNorm((128,), eps=1e-05, elementwise_affine=True)
                  (attn): WindowAttention(
                    (qkv): Linear(in_features=128, out_features=384, bias=True)
                    (attn_drop): Dropout(p=0.0, inplace=False)
                    (proj): Linear(in_features=128, out_features=128, bias=True)
                    (proj_drop): Dropout(p=0.0, inplace=False)
                    (softmax): Softmax(dim=-1)
                  )
                  (drop_path): DropPath(drop_prob=0.133)
                  (norm2): LayerNorm((128,), eps=1e-05, elementwise_affine=True)
                  (mlp): Mlp(
                    (fc1): Linear(in_features=128, out_features=512, bias=True)
                    (act): GELU()
                    (fc2): Linear(in_features=512, out_features=128, bias=True)
                    (drop): Dropout(p=0.0, inplace=False)
                  )
                )
                (3): SwinTransformerBlock(
                  (norm1): LayerNorm((128,), eps=1e-05, elementwise_affine=True)
                  (attn): WindowAttention(
                    (qkv): Linear(in_features=128, out_features=384, bias=True)
                    (attn_drop): Dropout(p=0.0, inplace=False)
                    (proj): Linear(in_features=128, out_features=128, bias=True)
                    (proj_drop): Dropout(p=0.0, inplace=False)
                    (softmax): Softmax(dim=-1)
                  )
                  (drop_path): DropPath(drop_prob=0.200)
                  (norm2): LayerNorm((128,), eps=1e-05, elementwise_affine=True)
                  (mlp): Mlp(
                    (fc1): Linear(in_features=128, out_features=512, bias=True)
                    (act): GELU()
                    (fc2): Linear(in_features=512, out_features=128, bias=True)
                    (drop): Dropout(p=0.0, inplace=False)
                  )
                )
              )
            )
          )
          (norm0): LayerNorm((128,), eps=1e-05, elementwise_affine=True)
        )
        (2): SwinTransformer(
          (layers): ModuleList(
            (0): BasicLayer(
              (blocks): ModuleList(
                (0): SwinTransformerBlock(
                  (norm1): LayerNorm((256,), eps=1e-05, elementwise_affine=True)
                  (attn): WindowAttention(
                    (qkv): Linear(in_features=256, out_features=768, bias=True)
                    (attn_drop): Dropout(p=0.0, inplace=False)
                    (proj): Linear(in_features=256, out_features=256, bias=True)
                    (proj_drop): Dropout(p=0.0, inplace=False)
                    (softmax): Softmax(dim=-1)
                  )
                  (drop_path): Identity()
                  (norm2): LayerNorm((256,), eps=1e-05, elementwise_affine=True)
                  (mlp): Mlp(
                    (fc1): Linear(in_features=256, out_features=1024, bias=True)
                    (act): GELU()
                    (fc2): Linear(in_features=1024, out_features=256, bias=True)
                    (drop): Dropout(p=0.0, inplace=False)
                  )
                )
                (1): SwinTransformerBlock(
                  (norm1): LayerNorm((256,), eps=1e-05, elementwise_affine=True)
                  (attn): WindowAttention(
                    (qkv): Linear(in_features=256, out_features=768, bias=True)
                    (attn_drop): Dropout(p=0.0, inplace=False)
                    (proj): Linear(in_features=256, out_features=256, bias=True)
                    (proj_drop): Dropout(p=0.0, inplace=False)
                    (softmax): Softmax(dim=-1)
                  )
                  (drop_path): DropPath(drop_prob=0.067)
                  (norm2): LayerNorm((256,), eps=1e-05, elementwise_affine=True)
                  (mlp): Mlp(
                    (fc1): Linear(in_features=256, out_features=1024, bias=True)
                    (act): GELU()
                    (fc2): Linear(in_features=1024, out_features=256, bias=True)
                    (drop): Dropout(p=0.0, inplace=False)
                  )
                )
                (2): SwinTransformerBlock(
                  (norm1): LayerNorm((256,), eps=1e-05, elementwise_affine=True)
                  (attn): WindowAttention(
                    (qkv): Linear(in_features=256, out_features=768, bias=True)
                    (attn_drop): Dropout(p=0.0, inplace=False)
                    (proj): Linear(in_features=256, out_features=256, bias=True)
                    (proj_drop): Dropout(p=0.0, inplace=False)
                    (softmax): Softmax(dim=-1)
                  )
                  (drop_path): DropPath(drop_prob=0.133)
                  (norm2): LayerNorm((256,), eps=1e-05, elementwise_affine=True)
                  (mlp): Mlp(
                    (fc1): Linear(in_features=256, out_features=1024, bias=True)
                    (act): GELU()
                    (fc2): Linear(in_features=1024, out_features=256, bias=True)
                    (drop): Dropout(p=0.0, inplace=False)
                  )
                )
                (3): SwinTransformerBlock(
                  (norm1): LayerNorm((256,), eps=1e-05, elementwise_affine=True)
                  (attn): WindowAttention(
                    (qkv): Linear(in_features=256, out_features=768, bias=True)
                    (attn_drop): Dropout(p=0.0, inplace=False)
                    (proj): Linear(in_features=256, out_features=256, bias=True)
                    (proj_drop): Dropout(p=0.0, inplace=False)
                    (softmax): Softmax(dim=-1)
                  )
                  (drop_path): DropPath(drop_prob=0.200)
                  (norm2): LayerNorm((256,), eps=1e-05, elementwise_affine=True)
                  (mlp): Mlp(
                    (fc1): Linear(in_features=256, out_features=1024, bias=True)
                    (act): GELU()
                    (fc2): Linear(in_features=1024, out_features=256, bias=True)
                    (drop): Dropout(p=0.0, inplace=False)
                  )
                )
              )
            )
          )
          (norm0): LayerNorm((256,), eps=1e-05, elementwise_affine=True)
        )
      )
    )
    (dense_head): AnchorHeadRDIoU(
      (cls_loss_func): SigmoidQualityFocalClassificationLoss()
      (dir_loss_func): WeightedCrossEntropyLoss()
      (conv_cls): Conv2d(384, 2, kernel_size=(1, 1), stride=(1, 1))
      (conv_box): Conv2d(384, 14, kernel_size=(1, 1), stride=(1, 1))
      (conv_dir_cls): Conv2d(384, 4, kernel_size=(1, 1), stride=(1, 1))
    )
    (point_head): None
    (roi_head): None
  )
)
2023-10-20 09:24:17,713   INFO  **********************Start training kitti_models/pointpillar_mobilenetv3_onecat_label_3swin_rdiou_3cat(default)**********************
2023-10-20 09:24:30,837   INFO  Train:  101/130 ( 78%) [   0/464 (  0%)]  Loss: 0.5030 (0.503)  LR: 9.681e-04  Time cost: 00:00/05:07 [00:13/2:33:34]  Acc_iter 46401       Data time: 0.11(0.11)  Forward time: 0.57(0.57)  Batch time: 0.68(0.68)
…
