…
2024-01-22 21:31:06,334   INFO  ----------- Create dataloader & network & optimizer -----------
2024-01-22 21:31:06,390   INFO  Database filter by min points Car: 14357 => 13532
2024-01-22 21:31:06,399   INFO  Database filter by difficulty Car: 13532 => 10759
2024-01-22 21:31:06,402   INFO  Loading KITTI dataset
2024-01-22 21:31:06,446   INFO  Total samples for KITTI dataset: 3712
2024-01-22 21:31:09,585   INFO  ----------- Model PointPillar created, param count: 10003748 -----------
2024-01-22 21:31:09,585   INFO  DistributedDataParallel(
  (module): PointPillar(
    (vfe): PillarVFE(
      (pfn_layers): ModuleList(
        (0): PFNLayer(
          (linear): Linear(in_features=10, out_features=64, bias=False)
          (norm): BatchNorm1d(64, eps=0.001, momentum=0.01, affine=True, track_running_stats=True)
        )
      )
    )
    (backbone_3d): None
    (map_to_bev_module): PointPillarScatter()
    (pfe): None
    (backbone_2d): MobileNetV3_Backbone_onecat_swin(
      (blocks): ModuleList(
        (0): Sequential(
          (0): ZeroPad2d(padding=(1, 1, 1, 1), value=0.0)
          (1): Conv2d(64, 64, kernel_size=(3, 3), stride=(2, 2), bias=False)
          (2): BatchNorm2d(64, eps=0.001, momentum=0.01, affine=True, track_running_stats=True)
          (3): ReLU()
          (4): Block(
            (conv1): Conv2d(64, 384, kernel_size=(1, 1), stride=(1, 1), bias=False)
            (bn1): BatchNorm2d(384, eps=1e-05, momentum=0.1, affine=True, track_running_stats=True)
            (act1): ReLU(inplace=True)
            (conv2): Conv2d(384, 384, kernel_size=(3, 3), stride=(1, 1), padding=(1, 1), groups=384, bias=False)
            (bn2): BatchNorm2d(384, eps=1e-05, momentum=0.1, affine=True, track_running_stats=True)
            (act2): ReLU(inplace=True)
            (se): Identity()
            (conv3): Conv2d(384, 64, kernel_size=(1, 1), stride=(1, 1), bias=False)
            (bn3): BatchNorm2d(64, eps=1e-05, momentum=0.1, affine=True, track_running_stats=True)
            (act3): ReLU(inplace=True)
          )
          (5): Block(
            (conv1): Conv2d(64, 384, kernel_size=(1, 1), stride=(1, 1), bias=False)
            (bn1): BatchNorm2d(384, eps=1e-05, momentum=0.1, affine=True, track_running_stats=True)
            (act1): ReLU(inplace=True)
            (conv2): Conv2d(384, 384, kernel_size=(3, 3), stride=(1, 1), padding=(1, 1), groups=384, bias=False)
            (bn2): BatchNorm2d(384, eps=1e-05, momentum=0.1, affine=True, track_running_stats=True)
            (act2): ReLU(inplace=True)
            (se): Identity()
            (conv3): Conv2d(384, 64, kernel_size=(1, 1), stride=(1, 1), bias=False)
            (bn3): BatchNorm2d(64, eps=1e-05, momentum=0.1, affine=True, track_running_stats=True)
            (act3): ReLU(inplace=True)
          )
          (6): Block(
            (conv1): Conv2d(64, 384, kernel_size=(1, 1), stride=(1, 1), bias=False)
            (bn1): BatchNorm2d(384, eps=1e-05, momentum=0.1, affine=True, track_running_stats=True)
            (act1): ReLU(inplace=True)
            (conv2): Conv2d(384, 384, kernel_size=(3, 3), stride=(1, 1), padding=(1, 1), groups=384, bias=False)
            (bn2): BatchNorm2d(384, eps=1e-05, momentum=0.1, affine=True, track_running_stats=True)
            (act2): ReLU(inplace=True)
            (se): Identity()
            (conv3): Conv2d(384, 64, kernel_size=(1, 1), stride=(1, 1), bias=False)
            (bn3): BatchNorm2d(64, eps=1e-05, momentum=0.1, affine=True, track_running_stats=True)
            (act3): ReLU(inplace=True)
          )
        )
        (1): Sequential(
          (0): ZeroPad2d(padding=(1, 1, 1, 1), value=0.0)
          (1): Conv2d(64, 128, kernel_size=(3, 3), stride=(2, 2), bias=False)
          (2): BatchNorm2d(128, eps=0.001, momentum=0.01, affine=True, track_running_stats=True)
          (3): ReLU()
          (4): Block(
            (conv1): Conv2d(128, 768, kernel_size=(1, 1), stride=(1, 1), bias=False)
            (bn1): BatchNorm2d(768, eps=1e-05, momentum=0.1, affine=True, track_running_stats=True)
            (act1): ReLU(inplace=True)
            (conv2): Conv2d(768, 768, kernel_size=(3, 3), stride=(1, 1), padding=(1, 1), groups=768, bias=False)
            (bn2): BatchNorm2d(768, eps=1e-05, momentum=0.1, affine=True, track_running_stats=True)
            (act2): ReLU(inplace=True)
            (se): Identity()
            (conv3): Conv2d(768, 128, kernel_size=(1, 1), stride=(1, 1), bias=False)
            (bn3): BatchNorm2d(128, eps=1e-05, momentum=0.1, affine=True, track_running_stats=True)
            (act3): ReLU(inplace=True)
          )
          (5): Block(
            (conv1): Conv2d(128, 768, kernel_size=(1, 1), stride=(1, 1), bias=False)
            (bn1): BatchNorm2d(768, eps=1e-05, momentum=0.1, affine=True, track_running_stats=True)
            (act1): ReLU(inplace=True)
            (conv2): Conv2d(768, 768, kernel_size=(3, 3), stride=(1, 1), padding=(1, 1), groups=768, bias=False)
            (bn2): BatchNorm2d(768, eps=1e-05, momentum=0.1, affine=True, track_running_stats=True)
            (act2): ReLU(inplace=True)
            (se): Identity()
            (conv3): Conv2d(768, 128, kernel_size=(1, 1), stride=(1, 1), bias=False)
            (bn3): BatchNorm2d(128, eps=1e-05, momentum=0.1, affine=True, track_running_stats=True)
            (act3): ReLU(inplace=True)
          )
          (6): Block(
            (conv1): Conv2d(128, 768, kernel_size=(1, 1), stride=(1, 1), bias=False)
            (bn1): BatchNorm2d(768, eps=1e-05, momentum=0.1, affine=True, track_running_stats=True)
            (act1): ReLU(inplace=True)
            (conv2): Conv2d(768, 768, kernel_size=(3, 3), stride=(1, 1), padding=(1, 1), groups=768, bias=False)
            (bn2): BatchNorm2d(768, eps=1e-05, momentum=0.1, affine=True, track_running_stats=True)
            (act2): ReLU(inplace=True)
            (se): Identity()
            (conv3): Conv2d(768, 128, kernel_size=(1, 1), stride=(1, 1), bias=False)
            (bn3): BatchNorm2d(128, eps=1e-05, momentum=0.1, affine=True, track_running_stats=True)
            (act3): ReLU(inplace=True)
          )
          (7): Block(
            (conv1): Conv2d(128, 768, kernel_size=(1, 1), stride=(1, 1), bias=False)
            (bn1): BatchNorm2d(768, eps=1e-05, momentum=0.1, affine=True, track_running_stats=True)
            (act1): ReLU(inplace=True)
            (conv2): Conv2d(768, 768, kernel_size=(3, 3), stride=(1, 1), padding=(1, 1), groups=768, bias=False)
            (bn2): BatchNorm2d(768, eps=1e-05, momentum=0.1, affine=True, track_running_stats=True)
            (act2): ReLU(inplace=True)
            (se): Identity()
            (conv3): Conv2d(768, 128, kernel_size=(1, 1), stride=(1, 1), bias=False)
            (bn3): BatchNorm2d(128, eps=1e-05, momentum=0.1, affine=True, track_running_stats=True)
            (act3): ReLU(inplace=True)
          )
          (8): Block(
            (conv1): Conv2d(128, 768, kernel_size=(1, 1), stride=(1, 1), bias=False)
            (bn1): BatchNorm2d(768, eps=1e-05, momentum=0.1, affine=True, track_running_stats=True)
            (act1): ReLU(inplace=True)
            (conv2): Conv2d(768, 768, kernel_size=(3, 3), stride=(1, 1), padding=(1, 1), groups=768, bias=False)
            (bn2): BatchNorm2d(768, eps=1e-05, momentum=0.1, affine=True, track_running_stats=True)
            (act2): ReLU(inplace=True)
            (se): Identity()
            (conv3): Conv2d(768, 128, kernel_size=(1, 1), stride=(1, 1), bias=False)
            (bn3): BatchNorm2d(128, eps=1e-05, momentum=0.1, affine=True, track_running_stats=True)
            (act3): ReLU(inplace=True)
          )
        )
        (2): Sequential(
          (0): ZeroPad2d(padding=(1, 1, 1, 1), value=0.0)
          (1): Conv2d(128, 256, kernel_size=(3, 3), stride=(2, 2), bias=False)
          (2): BatchNorm2d(256, eps=0.001, momentum=0.01, affine=True, track_running_stats=True)
          (3): ReLU()
          (4): Block(
            (conv1): Conv2d(256, 1536, kernel_size=(1, 1), stride=(1, 1), bias=False)
            (bn1): BatchNorm2d(1536, eps=1e-05, momentum=0.1, affine=True, track_running_stats=True)
            (act1): ReLU(inplace=True)
            (conv2): Conv2d(1536, 1536, kernel_size=(3, 3), stride=(1, 1), padding=(1, 1), groups=1536, bias=False)
            (bn2): BatchNorm2d(1536, eps=1e-05, momentum=0.1, affine=True, track_running_stats=True)
            (act2): ReLU(inplace=True)
            (se): Identity()
            (conv3): Conv2d(1536, 256, kernel_size=(1, 1), stride=(1, 1), bias=False)
            (bn3): BatchNorm2d(256, eps=1e-05, momentum=0.1, affine=True, track_running_stats=True)
            (act3): ReLU(inplace=True)
          )
          (5): Block(
            (conv1): Conv2d(256, 1536, kernel_size=(1, 1), stride=(1, 1), bias=False)
            (bn1): BatchNorm2d(1536, eps=1e-05, momentum=0.1, affine=True, track_running_stats=True)
            (act1): ReLU(inplace=True)
            (conv2): Conv2d(1536, 1536, kernel_size=(3, 3), stride=(1, 1), padding=(1, 1), groups=1536, bias=False)
            (bn2): BatchNorm2d(1536, eps=1e-05, momentum=0.1, affine=True, track_running_stats=True)
            (act2): ReLU(inplace=True)
            (se): Identity()
            (conv3): Conv2d(1536, 256, kernel_size=(1, 1), stride=(1, 1), bias=False)
            (bn3): BatchNorm2d(256, eps=1e-05, momentum=0.1, affine=True, track_running_stats=True)
            (act3): ReLU(inplace=True)
          )
          (6): Block(
            (conv1): Conv2d(256, 1536, kernel_size=(1, 1), stride=(1, 1), bias=False)
            (bn1): BatchNorm2d(1536, eps=1e-05, momentum=0.1, affine=True, track_running_stats=True)
            (act1): ReLU(inplace=True)
            (conv2): Conv2d(1536, 1536, kernel_size=(3, 3), stride=(1, 1), padding=(1, 1), groups=1536, bias=False)
            (bn2): BatchNorm2d(1536, eps=1e-05, momentum=0.1, affine=True, track_running_stats=True)
            (act2): ReLU(inplace=True)
            (se): Identity()
            (conv3): Conv2d(1536, 256, kernel_size=(1, 1), stride=(1, 1), bias=False)
            (bn3): BatchNorm2d(256, eps=1e-05, momentum=0.1, affine=True, track_running_stats=True)
            (act3): ReLU(inplace=True)
          )
          (7): Block(
            (conv1): Conv2d(256, 1536, kernel_size=(1, 1), stride=(1, 1), bias=False)
            (bn1): BatchNorm2d(1536, eps=1e-05, momentum=0.1, affine=True, track_running_stats=True)
            (act1): ReLU(inplace=True)
            (conv2): Conv2d(1536, 1536, kernel_size=(3, 3), stride=(1, 1), padding=(1, 1), groups=1536, bias=False)
            (bn2): BatchNorm2d(1536, eps=1e-05, momentum=0.1, affine=True, track_running_stats=True)
            (act2): ReLU(inplace=True)
            (se): Identity()
            (conv3): Conv2d(1536, 256, kernel_size=(1, 1), stride=(1, 1), bias=False)
            (bn3): BatchNorm2d(256, eps=1e-05, momentum=0.1, affine=True, track_running_stats=True)
            (act3): ReLU(inplace=True)
          )
          (8): Block(
            (conv1): Conv2d(256, 1536, kernel_size=(1, 1), stride=(1, 1), bias=False)
            (bn1): BatchNorm2d(1536, eps=1e-05, momentum=0.1, affine=True, track_running_stats=True)
            (act1): ReLU(inplace=True)
            (conv2): Conv2d(1536, 1536, kernel_size=(3, 3), stride=(1, 1), padding=(1, 1), groups=1536, bias=False)
            (bn2): BatchNorm2d(1536, eps=1e-05, momentum=0.1, affine=True, track_running_stats=True)
            (act2): ReLU(inplace=True)
            (se): Identity()
            (conv3): Conv2d(1536, 256, kernel_size=(1, 1), stride=(1, 1), bias=False)
            (bn3): BatchNorm2d(256, eps=1e-05, momentum=0.1, affine=True, track_running_stats=True)
            (act3): ReLU(inplace=True)
          )
        )
      )
      (deblocks): ModuleList(
        (0): Sequential(
          (0): ConvTranspose2d(64, 256, kernel_size=(1, 1), stride=(1, 1), bias=False)
          (1): BatchNorm2d(256, eps=0.001, momentum=0.01, affine=True, track_running_stats=True)
          (2): ReLU()
        )
        (1): Sequential(
          (0): ConvTranspose2d(128, 256, kernel_size=(2, 2), stride=(2, 2), bias=False)
          (1): BatchNorm2d(256, eps=0.001, momentum=0.01, affine=True, track_running_stats=True)
          (2): ReLU()
        )
        (2): Sequential(
          (0): ConvTranspose2d(256, 256, kernel_size=(4, 4), stride=(4, 4), bias=False)
          (1): BatchNorm2d(256, eps=0.001, momentum=0.01, affine=True, track_running_stats=True)
          (2): ReLU()
        )
      )
      (swin): SwinTransformer(
        (layers): ModuleList(
          (0): BasicLayer(
            (blocks): ModuleList(
              (0): SwinTransformerBlock(
                (norm1): LayerNorm((256,), eps=1e-05, elementwise_affine=True)
                (attn): WindowAttention(
                  (qkv): Linear(in_features=256, out_features=768, bias=True)
                  (attn_drop): Dropout(p=0.0, inplace=False)
                  (proj): Linear(in_features=256, out_features=256, bias=True)
                  (proj_drop): Dropout(p=0.0, inplace=False)
                  (softmax): Softmax(dim=-1)
                )
                (drop_path): Identity()
                (norm2): LayerNorm((256,), eps=1e-05, elementwise_affine=True)
                (mlp): Mlp(
                  (fc1): Linear(in_features=256, out_features=1024, bias=True)
                  (act): GELU()
                  (fc2): Linear(in_features=1024, out_features=256, bias=True)
                  (drop): Dropout(p=0.0, inplace=False)
                )
              )
              (1): SwinTransformerBlock(
                (norm1): LayerNorm((256,), eps=1e-05, elementwise_affine=True)
                (attn): WindowAttention(
                  (qkv): Linear(in_features=256, out_features=768, bias=True)
                  (attn_drop): Dropout(p=0.0, inplace=False)
                  (proj): Linear(in_features=256, out_features=256, bias=True)
                  (proj_drop): Dropout(p=0.0, inplace=False)
                  (softmax): Softmax(dim=-1)
                )
                (drop_path): DropPath(drop_prob=0.067)
                (norm2): LayerNorm((256,), eps=1e-05, elementwise_affine=True)
                (mlp): Mlp(
                  (fc1): Linear(in_features=256, out_features=1024, bias=True)
                  (act): GELU()
                  (fc2): Linear(in_features=1024, out_features=256, bias=True)
                  (drop): Dropout(p=0.0, inplace=False)
                )
              )
              (2): SwinTransformerBlock(
                (norm1): LayerNorm((256,), eps=1e-05, elementwise_affine=True)
                (attn): WindowAttention(
                  (qkv): Linear(in_features=256, out_features=768, bias=True)
                  (attn_drop): Dropout(p=0.0, inplace=False)
                  (proj): Linear(in_features=256, out_features=256, bias=True)
                  (proj_drop): Dropout(p=0.0, inplace=False)
                  (softmax): Softmax(dim=-1)
                )
                (drop_path): DropPath(drop_prob=0.133)
                (norm2): LayerNorm((256,), eps=1e-05, elementwise_affine=True)
                (mlp): Mlp(
                  (fc1): Linear(in_features=256, out_features=1024, bias=True)
                  (act): GELU()
                  (fc2): Linear(in_features=1024, out_features=256, bias=True)
                  (drop): Dropout(p=0.0, inplace=False)
                )
              )
              (3): SwinTransformerBlock(
                (norm1): LayerNorm((256,), eps=1e-05, elementwise_affine=True)
                (attn): WindowAttention(
                  (qkv): Linear(in_features=256, out_features=768, bias=True)
                  (attn_drop): Dropout(p=0.0, inplace=False)
                  (proj): Linear(in_features=256, out_features=256, bias=True)
                  (proj_drop): Dropout(p=0.0, inplace=False)
                  (softmax): Softmax(dim=-1)
                )
                (drop_path): DropPath(drop_prob=0.200)
                (norm2): LayerNorm((256,), eps=1e-05, elementwise_affine=True)
                (mlp): Mlp(
                  (fc1): Linear(in_features=256, out_features=1024, bias=True)
                  (act): GELU()
                  (fc2): Linear(in_features=1024, out_features=256, bias=True)
                  (drop): Dropout(p=0.0, inplace=False)
                )
              )
            )
          )
        )
        (norm0): LayerNorm((256,), eps=1e-05, elementwise_affine=True)
      )
    )
    (dense_head): AnchorHeadRDIoU(
      (cls_loss_func): SigmoidQualityFocalClassificationLoss()
      (dir_loss_func): WeightedCrossEntropyLoss()
      (conv_cls): Conv2d(256, 2, kernel_size=(1, 1), stride=(1, 1))
      (conv_box): Conv2d(256, 14, kernel_size=(1, 1), stride=(1, 1))
      (conv_dir_cls): Conv2d(256, 4, kernel_size=(1, 1), stride=(1, 1))
    )
    (point_head): None
    (roi_head): None
  )
)
2024-01-22 21:31:09,587   INFO  **********************Start training kitti_models/pillar_m3_355swin_rdiou(default)**********************
2024-01-22 21:31:22,335   INFO  Train:    1/100 (  1%) [   0/464 (  0%)]  Loss: 1.681 (1.68)  LR: 3.000e-04  Time cost: 00:00/04:10 [00:12/6:57:40]  Acc_iter 1           Data time: 0.12(0.12)  Forward time: 0.42(0.42)  Batch time: 0.54(0.54)
…
